MO/ML-soc-2023/day7/model.pth (torch, 89851 bytes, 8 tensors)

conv1.weight f4 [10, 1, 5, 5]
00000000: d75d 23be b57c 933d 0bdc 42bd a3cf e63c
00000010: 99d6 f5bc 0f53 3abe cebd 163d 0ee3 aa3d
00000020: abae 3ebe d730 d1bd 38f3 4abe 2021 67be
00000030: 43f4 d3bd 7c8a 23be c300 dabd 4ee5 0d3e
00000040: e705 d63d bd0f a53d 5100 c63d 859e 26be
00000050: fe6d 403d ebed 15be 550c 45be f279 893c
00000060: 9819 5ebe 4a80 4dbe d50b fe3d daa2 4fbe
00000070: 2b04 83be 3e97 76bc 6c0f 243e 466f febd
00000080: 7075 32bd 3777 dfbc 493c 9cbe 23d5 d83d
00000090: 12f9 1ebd af87 d93d f89c 87bd 0e6e 3ebe
000000a0: 9e59 e73c d708 c0bd cd26 85bd e509 11bd
000000b0: 90e7 a73e bba3 143e e0bb 0abd e942 8b3e
000000c0: 678c a43e a7b1 123e f5d5 2fbd 3a99 febc
000000d0: 3296 cbbd b8b5 bb3e e925 813e d982 df3d
000000e0: 4a20 01be 887f 873b a1b7 b83e db8c ec3e
000000f0: a109 a6bb 53ce e2bc 95e0 593b db20 853e
00000100: c085 be3e 107f 82bd c0f5 51be cd8e ae3d
00000110: 3a1a 283e 6085 8a3e 71db d63b bca1 213e
00000120: f8b4 373e a38b b33d 1f19 333e 856e 33be
00000130: 52bd 4f3e 9fec 92bd 1a00 4f3e 7391 c5bd
00000140: b3c5 f6bd d8ca 203e 6f87 9e3d e463 e4bd
00000150: a965 a53d 15d8 fbbc 327b 1dbe d757 873c
00000160: 5048 6cbe 143d dabd d449 643d f07b cb3d
00000170: dd0e febd 2217 08be 2a84 20be 7d96 08be
00000180: 0777 983e d722 813e bb1b 29bd 48fc 623e
00000190: 67c6 c43e 491d c33e 0612 80bd 1bf3 45be
000001a0: f6db a5be a694 7b3e 3c6d 4b3d 5ce5 e13c
000001b0: f28c a7be 9730 22be ca26 973e fff5 ad3e
000001c0: e84f 01be 75d0 c3bd 3cd6 45be 0230 213e
000001d0: 0812 793e b9b3 063d 7abe 58be c753 74be
000001e0: 6558 78bc 55c9 da3d 3b50 293e c68a 2dbe
000001f0: 065a 55be fd6f 423e d63f e4bc 5739 f93d
00000200: 24fc 6c3e ff0b 643d ceed 8abd bb2b e33d
00000210: 435a b5bc e853 973e 0239 b13e 2d78 25be
00000220: efbe 2a3e 7ffc 35bd 031a d1bd e3f7 b23d
00000230: 3271 28be 7fb6 41be 40eb cdbc cf5e 53be
00000240: 191e ddbc 4b57 4c3d 30d3 d3bb d7d3 51be
00000250: bef6 97bb d7c9 d73c 8387 e3bd b0ea 1dbe
00000260: c9a4 7f3d 4eab c8bc b575 e13d 6d58 043c
00000270: 7039 2abe bd00 07be f949 e43d 5548 5c3d
00000280: 8ed4 4dbe 5b2e f43d 6dae 28be 1889 b4bd
00000290: 6d92 5dbe df38 c43d 58a8 bdbb f099 9dbd
000002a0: 4001 5fbe e381 923b e353 f3bc 2f89 f3bd
000002b0: a24b b23d 19dc 1dbe 3b4a ef3b cb09 adbd
000002c0: 9efb 7fbe a45f 25bc 619b 8c3d 8087 a3bd
000002d0: a25f 1cbe 34e3 fabb d523 5bbe e626 20bb
000002e0: 8c15 403e 9c63 1ebe a540 ad3d e9b1 aa3e
000002f0: 9914 2a3e 18d2 ee3d c99a ac3e 029f f73e
00000300: 3e07 f93e e804 a83e a5c9 41bd a51e 6f3e
00000310: e8b8 6e3e 97fd 3d3e a464 a63d 369e 24be
00000320: 5f14 943e 8e30 633d ed8f 95be 45c3 18be
00000330: 5361 80be a4e2 a63e 701a 803e 110a 1f3e
00000340: 35b2 01be 21bd 69be caa4 663e 585f 7b3d
00000350: ab56 8c3d 8a7f 72bd 31f9 38be c952 2a3e
00000360: 48c2 603d 48dd ba3e 863c bf3e 35f4 813e
00000370: e33b ea3d 07ab 7ebb bd45 3f3e e638 8a3e
00000380: ac9e 8eba f8ea d2bb 2039 c93e 6de2 ef3e
00000390: 8a5a cc3e d012 eb3e 10f1 82bd dcc1 4a3e
000003a0: ded4 173e 98d5 8c3c 21ad 993e 8520 acbe
000003b0: 2f37 5bbe f131 58be c623 243d 274a e7bd
000003c0: df64 73be 60aa aebe c369 f6bd 6b9c 0fbe
000003d0: e8d8 23be 6e25 2ebe 6a14 47be b8f9 acbe
000003e0: 1adc 9ebe 1095 debc
-0.15953766 0.0720152 -0.04757313 0.02817518 -0.030009555 -0.18195747 0.036802106 0.083440885
-0.18621318 -0.102143936 -0.19819343 -0.2257123 -0.103493236 -0.15970796 -0.106446765 0.13857004
0.104503445 0.080596425 0.09668029 -0.16271408 0.046979897 -0.1464154 -0.19242986 0.01678178
-0.2168945 -0.2006847 0.124046005 -0.20276967 -0.25589117 -0.015050707 0.16021508 -0.124235675
-0.04356903 -0.027278526 -0.30514744 0.105875276 -0.03881175 0.10621583 -0.06621736 -0.1859667
0.028240975 -0.09376686 -0.06501541 -0.035409827 0.32793856 0.14515583 -0.033870578 0.27199486
0.32138368 0.14325581 -0.042928655 -0.031078923 -0.09940757 0.36662078 0.25224236 0.10913629
-0.12609974 0.004135076 0.36077598 0.46201214 -0.005067066 -0.027686274 0.0033245434 0.2600163
0.37211418 -0.063718915 -0.20503902 0.08523331 0.16416255 0.27054882 0.006556921 0.15784353
0.17940128 0.08766868 0.17490052 -0.17522629 0.20287064 -0.07174038 0.20214882 -0.09646883
-0.12049427 0.15702379 0.07740676 -0.11151865 0.08076031 -0.030742684 -0.15379027 0.016521377
-0.2307446 -0.10656181 0.05573447 0.099357486 -0.12405179 -0.13290074 -0.15675417 -0.13338657
0.2977831 0.25221893 -0.04128621 0.2216655 0.3843262 0.3810828 -0.06253438 -0.19331019
-0.3239438 0.24568424 0.04966472 0.027575187 -0.3272472 -0.15838848 0.2952178 0.33976743
-0.12628138 -0.095612444 -0.19320005 0.1574097 0.24323285 0.03288624 -0.21166411 -0.23860084
-0.015157794 0.10682932 0.16534512 -0.16947469 -0.20835122 0.18988033 -0.02786247 0.1216914
0.23143059 0.055675503 -0.06783639 0.11092325 -0.022137767 0.29556203 0.34613806 -0.16159125
0.16674398 -0.044430252 -0.102100395 0.08738687 -0.1644943 -0.18917273 -0.02513659 -0.20641635
-0.02699189 0.049887937 -0.0064643845 -0.20490967 -0.0046375683 0.026341362 -0.11109831 -0.15421557
0.06241301 -0.024495747 0.11008779 0.008077723 -0.16623473 -0.13183875 0.11146922 0.05377992
-0.20100614 0.11922904 -0.16472788 -0.08815211 -0.21637888 0.0958116 -0.0057878904 -0.07695377
-0.2177782 0.00447105 -0.029703086 -0.118914 0.08705832 -0.15415992 0.00730255 -0.084491335
-0.24998328 -0.010093603 0.06865574 -0.07984829 -0.15270856 -0.0076564793 -0.21400388 -0.0024437248
0.1875822 -0.15467685 0.084595956 0.3333886 0.1660942 0.11661166 0.33711842 0.483635
0.48638338 0.32816243 -0.047311444 0.23351534 0.23312724 0.18553768 0.081246644 -0.16075978
0.28921792 0.055466227 -0.2921137 -0.1491824 -0.25074252 0.32594788 0.2502017 0.15531184
-0.12665637 -0.22826053 0.225238 0.061370224 0.06852468 -0.059203662 -0.18063809 0.16633143
0.05487278 0.3649695 0.37350863 0.25381628 0.11437204 -0.0038859264 0.18678947 0.26996535
-0.0010881028 -0.006436702 0.39301395 0.46852437 0.39912826 0.4591279 -0.06393635 0.19800514
0.14827296 0.017191693 0.300149 -0.3361856 -0.2140777 -0.21112801 0.04007318 -0.1129344
-0.23768948 -0.3411436 -0.12031891 -0.14024512 -0.16000712 -0.17006466 -0.19441381 -0.3378427
-0.310273 -0.027170688

conv1.bias f4 [10]
00000000: d205 023d d0cc 1c3d 8d8b 773e a1fc 55bd
00000010: 2ba7 a33c 010b 123e 35f8 35bd 502d 373e
00000020: 31ba 623e 2ca9 c9bd
0.031743832 0.038281262 0.24174328 -0.05224288 0.019977173 0.1426201 -0.04442616 0.17888379
0.22141339 -0.0984672

conv2.weight f4 [20, 10, 5, 5]
00000000: 80d6 d43c 3264 e1bc aa35 bdbc aad4 62bd
00000010: 57ef 21bd 5ac2 5abd d8a3 e73c ba1c 83bd
00000020: a668 9e3c 33d3 b13c 1dd8 86bd 8485 97bc
00000030: 7339 a23c 65b8 d03b 4a92 513c b394 303d
00000040: 5fc9 6c3b e9e6 48bb 3bcf 413b 3cd4 073d
00000050: 3636 7c3c 4cbd b5bb d6ab 56bd 1388 96bb
00000060: d1bd c23c c3bc c1bc ed55 823c ffb9 8a3d
00000070: 3a8d ed3c 3195 1a3d 3d83 e13c 3f8f 4f3d
00000080: 3f43 b53d ba6a 5f3d c7d5 913d 45f0 27bd
00000090: c5e4 983d e4ea 17bd d68c 0dbd f4d7 c93c
000000a0: d38c c13b 95a8 6b3d f0b5 23bd 61c8 183d
000000b0: 0dc2 833c 8d11 353d ac6b c93d fc03 80ba
000000c0: b758 0d3b 7bd9 5ebc 8988 4b3b 1e80 8bbd
000000d0: 85f2 d9bd 112d 11be 4ef4 09be 4a6b c9bb
000000e0: daa7 4f3c c25b 083c f7be d5bc 28b9 99bd
000000f0: d7c4 a9bc dd31 993c 93e6 3ebb 7023 d13c
00000100: b7f3 143c 766d 043c e42f 2b3b 1991 fdbc
00000110: 4286 68bd e209 fa3c fab5 8cbd f899 b6bd
00000120: 0861 03bc 5d94 a6bd 834a 60bd 4df4 763c
00000130: 9b10 753d ebc0 a03d ffe0 6d3d 268e 6f3c
00000140: b550 4abd c40e 833d 440d b23d 23b1 5f3c
00000150: 1a64 ca3c 8e2b 253d 5f77 223d f0f7 843a
00000160: 8a57 74bd 8e94 9cbd d818 32bd 69c2 27bd
00000170: c2c2 483d 4927 8a3a 2e92 cf3c 5cd3 dcbc
00000180: 5b48 3dbd de67 4e3c 5853 473d f1d5 9fbc
00000190: f1b6 d1bc 45ea 7c3c 4962 b8bd dbdd 813c
000001a0: 65ab 47bd 73dc b93c e65e 8ebc da94 c6bb
000001b0: 17f8 7d3c a239 8ebd 4833 10bc f72d 9f3b
000001c0: 5b60 92bc 4326 05be 67a8 10bc 7e06 06bd
000001d0: 6825 a7bd 30a7 9ebd 2843 94bd dd58 bebd
000001e0: 6c6a b03c 086e 2dbd 6e87 97bd ab96 05be
000001f0: 4fd0 403b e532 05bc a903 9cbb 8159 29bd
00000200: dc02 b9bd a3e6 20bd a9eb 31bc 5626 a73c
00000210: 8088 f63c a1f6 9e3d 9f20 12bd 95a1 08bb
00000220: c32e 8a3b 2d05 433d 9269 e53d 5934 ab3d
00000230: 4a4b 463d 3bd4 7b3d 2be1 27bc 8689 a83c
00000240: 270e 763d 606b 69bb e206 95bd 9f08 8ebd
00000250: 5229 3dbd ccd3 943c aa1e 7dbc f8f0 f7bc
00000260: 91d3 f83b 0d87 4c3c b906 483d 4007 80bc
00000270: 89c1 43bd 17d2 23bd 152e 4a3d 114a 143d
00000280: d54b 9fbc bb4d 2dbc 0165 913c 9393 293d
00000290: ab77 503c 0165 993d 8220 25bc 29c4 683d
000002a0: 227f 803d 7851 16bd fffc 02bd f995 2d3d
000002b0: 4fe0 3e3b f1d2 7b39 1b13 9ebc eb72 993c
000002c0: 7541 303d 3c17 013d 45f9 51bc 479b 83bc
000002d0: 8f20 c2bd d9db 89bd 8d27 28bd 2ac1 853d
000002e0: 4f7b b43d 5037 fdbc 4d24 c73b 9761 a03d
000002f0: 1eaf 2bbd e872 33bd 51df 96bd 82fe 53bd
00000300: 162f 57bd 92c4 acbd b309 0c3c a5e8 63bc
00000310: 3ad8 5f3d 0330 333d 3173 9e3d e906 703d
00000320: fd87 60bc 801f ea3c a672 1ebd 32ab 763d
00000330: b169 5e3d 0f21 3a3d e993 553c b1a4 f13d
00000340: 78a7 193d ca38 f33d 2314 0dbd 4060 253d
00000350: a2c8 3bbc 2f02 8a3d e0cb 773b 7888 303d
00000360: a8fc 8d3b 857a 59bc 3547 0dbd eb07 bf3b
00000370: 9aba 3cbd ec83 4c3d 27fd a83c 5308 f7bc
00000380: f62c 1dbd 091b b5bd e191 d0bd 4820 9bbb
00000390: 142c bfbc 7332 89bc 6e9c 033c a59d 193e
000003a0: af15 013e a6b6 1b3d 9b9b cd3c 611e 8d3c
000003b0: 9a9e d63d b228 0c3d 73fe 023e e145 033e
000003c0: e5e7 203d 509e 043e 912f 1c3e f900 dc3d
000003d0: 0baa 37bc 4bcf cc3d a4ee bdbb 6d93 1ebd
000003e0: 9d63 a1bd 4ebc fabd e4de c33c c78a 1c3c
000003f0: b198 813c 5361 f3bb a19b 10bd 9ec7 113d
0.025981188 -0.027513597 -0.023096878 -0.055378594 -0.039534893 -0.053408004 0.028276369 -0.064019635
0.01933701 0.021707153 -0.06584189 -0.018496282 0.019802785 0.006369638 0.012791226 0.04311056
0.0036130769 -0.0030655211 0.0029572982 0.033161387 0.015393784 -0.0055462476 -0.05240997 -0.004593858
0.023772152 -0.023649579 0.015910113 0.06773757 0.028998006 0.037739936 0.0275284 0.05067372
0.08850717 0.05454514 0.07120853 -0.041000623 0.07465509 -0.037089244 -0.03455814 0.024639107
0.00590668 0.05753382 -0.03996843 0.03730047 0.016083742 0.04420619 0.0983499 -0.0009766812
0.002156777 -0.013601656 0.0031056723 -0.06811546 -0.1064196 -0.14177348 -0.13472101 -0.006146823
0.012674296 0.008322658 -0.026092036 -0.07506019 -0.020723743 0.018700534 -0.0029129132 0.025529593
0.009091309 0.008082738 0.0026121074 -0.030952977 -0.056768663 0.03052229 -0.06870647 -0.08916086
-0.0080187395 -0.08133767 -0.05475856 0.015072894 0.05983029 0.07849296 0.0580759 0.014621293
-0.049393374 0.06399301 0.086939365 0.0136530725 0.024705935 0.04032474 0.039664622 0.0010144692
-0.059653796 -0.07645522 -0.043480724 -0.04095689 0.04901386 0.0010540272 0.025338259 -0.026956253
-0.04621158 0.012598006 0.048663467 -0.019511195 -0.025599929 0.015436714 -0.090031214 0.01585286
-0.04874744 0.022688126 -0.017379235 -0.006060225 0.015501044 -0.06944586 -0.008801289 0.0048577744
-0.017868211 -0.13002877 -0.008829213 -0.032721035 -0.081614316 -0.07746732 -0.072393715 -0.09294293
0.02153512 -0.042341262 -0.07398878 -0.13045757 0.0029421037 -0.00812981 -0.0047611785 -0.041345123
-0.090337485 -0.039282452 -0.010859408 0.020404022 0.030094385 0.077618845 -0.03567564 -0.0020848264
0.004217 0.047612358 0.112017766 0.08359594 0.048411645 0.061481696 -0.010246555 0.020573389
0.06007209 -0.003561698 -0.072767034 -0.06935238 -0.046181984 0.018167399 -0.015449205 -0.03026627
0.00759358 0.0124833705 0.048834536 -0.015628457 -0.04779199 -0.03999528 0.049360353 0.036203448
-0.01944534 -0.010577614 0.017748358 0.041400503 0.012723844 0.07489968 -0.010078551 0.056827698
0.06274249 -0.03669879 -0.031979557 0.042379353 0.0029125398 0.00024015807 -0.01929622 0.018731555
0.043031175 0.0315163 -0.012815778 -0.016065253 -0.09478866 -0.06731386 -0.041053344 0.06530984
0.08812582 -0.030910164 0.0060773254 0.07831114 -0.04191505 -0.043810755 -0.07366813 -0.05175639
-0.05253514 -0.0843593 0.008547234 -0.013910447 0.05464957 0.04374696 0.07736815 0.05860034
-0.013704297 0.028579473 -0.038683556 0.06022186 0.054300014 0.045441683 0.013035753 0.117989905
0.037513226 0.11876066 -0.034443032 0.040374994 -0.011461409 0.06738698 0.0037810728 0.043098897
0.0043330975 -0.01327384 -0.034491736 0.0058298013 -0.046076395 0.049930498 0.020628525 -0.030155336
-0.038372956 -0.08843047 -0.10184074 -0.004734073 -0.023336448 -0.016747689 0.008032901 0.15001543
0.12605928 0.038015984 0.025098613 0.0172264 0.104794696 0.034218498 0.12792377 0.12819625
0.03928365 0.12951016 0.1525252 0.10742373 -0.011209975 0.100004755 -0.0057962704 -0.038714815
-0.07880328 -0.122429475 0.023909993 0.0095545715 0.01581988 -0.0074273734 -0.03530467 0.03559076

conv2.bias f4 [20]
00000000: 6d01 df3c f906 ac3c 5c4b f6bc c2d5 40bd
00000010: 6768 35bd b2b9 d0bc 1db7 84bd 8053 e13c
00000020: feb6 073d 4a7e ac3c 6b40 fbbc 53e7 69bc
00000030: 2112 84bc 1924 553d e29f 0abd 17d3 3fbd
00000040: f4b8 eabb 6eab 01bc ed96 edbb b43c 603c
0.02722236 0.020999419 -0.030065231 -0.047078855 -0.04428902 -0.025479171 -0.064802386 0.027505636
0.0331335 0.021056313 -0.030670365 -0.014276343 -0.016121926 0.05203638 -0.033843882 -0.04683217
-0.0071631614 -0.007914407 -0.007250658 0.013686348

fc1.weight f4 [50, 320]
00000000: 1130 c33c 9a74 113b aa55 c7bb 0a94 dc3d
00000010: cf24 1f3b 2e4f 45bd 6e03 2a3c 4a0f 793d
00000020: ba1e 7ebd 18ff 233d c485 5c3d 11cf 9e3c
00000030: e1a9 033d 86a3 053c 55ed 33bc 1583 e5bc
00000040: 7e94 e5bb 40e0 5ebd d112 3fbd e477 21bd
00000050: 5969 12bd 60d5 1d3d 95ec 60bd 479b 7cbd
00000060: d264 6e3c ecd8 733d b1f6 5f3d 74e6 e13d
00000070: 1545 1d3c 78d7 d7bc 3bf8 98bc 4be7 c63c
00000080: 077d 2dbc 18c6 d23b 4fb3 ff3c b9bb 3ebd
00000090: d4b7 673d d8fb 083d a535 82bd 8b23 23bd
000000a0: 0ad9 27bd 1886 873c 0f3e 37bd 1bd3 78bc
000000b0: 9088 c43d 5046 83bd 3fc7 bbbd c27e 43bd
000000c0: cf2a 403d d636 b1bc 8065 4f3d 72dc 8a3d
000000d0: 4241 2c3d c1b0 26bd 50bf 323c 43a3 693b
000000e0: c68c 0e3d 50f8 1f3d 37ab 10bd 0e7b b2bd
000000f0: 5dd5 67bd 9036 81bb bf0f e0bc 904a cb3d
00000100: a929 873c ecb7 b4bc b3ec be3c 91c8 213d
00000110: e461 073d ecf6 0abd 3008 2a3d 4916 c23d
00000120: 0f29 9dbd 944e 873d 5177 8d3c 2663 98bc
00000130: 002e eabc 9526 b1bb 879b 113d feca 18bc
00000140: 389d 7cbd a78f bbbc 2daf 113d d036 a03d
00000150: 9086 56bd fb73 d23b fa96 74bc 7299 5d3d
00000160: 6de4 43bd 8943 25bc d0cf dabc 3313 81bd
00000170: b3a8 88bc 7f42 1cbd 36d7 b03d 7054 dc3c
00000180: c34f 2a3c 69f5 96bc 70c6 a1bc f690 413d
00000190: b1a9 6ebd 328e 84bc 4ea8 083d 7ff5 293c
000001a0: 86e5 9bbc c8f4 903c a052 2c3d 0ee3 593b
000001b0: ab8d 0b3d c952 9c3c 4d7c 09bc 503d 0bbd
000001c0: d078 cfbd a6a0 b0bc 1f23 c53c 6c43 c5ba
000001d0: b4e4 13bd e69b bfbd b26e 813c fc4f 9e3c
000001e0: 9f3a 993c b726 d93c c3bb 08bd 4417 b23c
000001f0: 381e 323d 618c 963d cc90 ae39 40ee 50bd
00000200: 5776 dd3c 823b 1fbd 6b6c 56bd a58b 193d
00000210: ece9 c5bc 0cb3 15bd 88c4 4a3d 5cf4 fabb
00000220: 44f4 3cbb ef3e 913d 5568 6fbd 2010 66bd
00000230: dd47 553d 4a7c 433c 31b0 9e3c be4d 5a3d
00000240: cd05 043b a08b 113c 1903 e9bc 7dee 57bb
00000250: 8f1d dd3b 13d4 ecba 2d9e 4f3c 0b62 60bd
00000260: 5587 a73d a71b b83d a9cd 00bc 767d 69bd
00000270: a283 81bb 3e67 88bd 839a 80bc bef4 103d
00000280: fe9d 10bc 0c2e 1a3d 7366 d7bc 44d5 a73c
00000290: 3003 213d 7c5a 2bbd fe11 e93c 8b68 14bd
000002a0: 964c 47bd dd08 19bd 4bb6 283d e56a 0cbd
000002b0: 372d 33bd 64e3 073d 3779 04bd acf7 9d3c
000002c0: e3bc 093d c7a3 e2bc f7ea ed3b 7ba3 8f3c
000002d0: c735 90bd 9fd3 edba c117 cebb 0877 05bc
000002e0: 4c2c 3fbd 4b0d 603d 3b5f 91bc 21fa 13bd
000002f0: aa0a 4fbd c19f 8b3d 9d6f d03c afff 3d3d
00000300: 0b87 31bd 0fbc 0cbc 76ab 81bb 3f91 403c
00000310: 08ff 11bb e508 a23d 083d 08bd 4f0d b5bc
00000320: 47ac 5e3c 4ca5 79bd 1a0e e7bb 9e4c e9bc
00000330: b8e5 fbba f1ec 243d 72f0 8b3d e04d a0bc
00000340: 1fd1 b7bb b32a cb3b bd59 95bc 38be 8c3d
00000350: ade7 debc 2f49 dc3c 00b9 3a3d c3e0 50bd
00000360: 5e32 a3bc b745 593d 6739 9bbc daa9 4ebd
00000370: a9c1 72bd 1a2d 93bd 0e76 a3bb f682 013d
00000380: c99a 873c 5493 65bc 121d 143d 0b27 98bd
00000390: af0d f13c 2a86 713d 9aca b3bd 4132 e5bc
000003a0: 79fb 4bbd e222 41bd 483e 67bc e10a 483d
000003b0: c64e 443d c98d a33c d588 9abc fbe8 f2bb
000003c0: 304c ce3c 711b e53c 8b25 9f3c 496e 2dbc
000003d0: 91f8 183d fe9c 053d d2d6 88bd 3e2a 2a3d
000003e0: fec4 c93a d64e 09bd abcd 2f3c 9fb7 8e3d
000003f0: 07b4 4a3c edb7 7dbc c887 41bd 1266 19bc
0.02382663 0.0022194744 -0.00608321 0.10770424 0.0024283414 -0.048171215 0.010376794 0.060805596
-0.062041022 0.0400382 0.053838506 0.019385846 0.03214443 0.008156663 -0.010981877 -0.028016606
-0.007006227 -0.05441308 -0.046648804 -0.039420977 -0.035745 0.03853357 -0.054913122 -0.06167152
0.014550405 0.059533045 0.054678623 0.110302836 0.00959899 -0.02634786 -0.018673053 0.024280211
-0.010588891 0.006432306 0.03121343 -0.046565745 0.056571797 0.033443302 -0.06357888 -0.03982882
-0.04097847 0.016543433 -0.044736918 -0.01518705 0.0959636 -0.064098954 -0.091688626 -0.047728308
0.046915825 -0.021632593 0.050633907 0.06780328 0.042054422 -0.04069591 0.01090987 0.003565029
0.03480222 0.03905517 -0.035319533 -0.08714877 -0.056599963 -0.003943272 -0.027351258 0.09926331
0.016499357 -0.022060357 0.023306226 0.039497916 0.03305234 -0.03392689 0.041511714 0.09476907
-0.07673847 0.066067845 0.017268809 -0.018601965 -0.028586388 -0.0054062107 0.035548713 -0.009325741
-0.061673373 -0.022895647 0.03556745 0.07822955 -0.052374423 0.0064225174 -0.014928574 0.054101415
-0.047825266 -0.010086902 -0.02671042 -0.0630249 -0.016682005 -0.038149353 0.08634798 0.026895732
0.010394993 -0.018427568 -0.019747943 0.047257386 -0.0582673 -0.016181085 0.033363633 0.010373472
-0.019030344 0.017694846 0.042070985 0.0033246907 0.034070652 0.019082444 -0.008391452 -0.03399402
-0.10130465 -0.021560978 0.024064599 -0.001505 -0.03610678 -0.09355907 0.015799854 0.019325249
0.01870471 0.026507718 -0.03338219 0.02173961 0.04348585 0.07350994 0.00033295748 -0.051008463
0.027033968 -0.03887511 -0.05234949 0.03748669 -0.024159394 -0.036547706 0.049503833 -0.0076585244
-0.0028832117 0.07092082 -0.05844911 -0.05616772 0.052070487 0.011931488 0.019371124 0.053296797
0.002014506 0.008883387 -0.02844386 -0.0032948547 0.0067479084 -0.0018068574 0.012671989 -0.054781
0.081801094 0.08989649 -0.007861533 -0.057004414 -0.0039524594 -0.06660317 -0.015698677 0.035389654
-0.008826731 0.03764157 -0.026293969 0.020487435 0.03930968 -0.04183434 0.028450962 -0.036232512
-0.048657022 -0.03736197 0.041189473 -0.03428163 -0.043744292 0.03317584 -0.032342162 0.019283138
0.033627402 -0.027665986 0.007260676 0.017534008 -0.07041507 -0.0018144733 -0.006289453 -0.008146055
-0.046673104 0.054700177 -0.017745605 -0.036127213 -0.05054728 0.0681758 0.025443846 0.046386417
-0.043341678 -0.008589759 -0.0039572073 0.011753379 -0.0022277255 0.07911853 -0.03326133 -0.022101073
0.013590879 -0.060948655 -0.0070512416 -0.028478917 -0.0019218242 0.040265027 0.06832971 -0.019568384
-0.005609646 0.0062001585 -0.018231267 0.06872219 -0.027210081 0.026890365 0.045586586 -0.0509956
-0.019921478 0.053045 -0.01894827 -0.05045495 -0.05926672 -0.07186337 -0.0049884384 0.031619035
0.0165533 -0.014012177 0.036160536 -0.07429322 0.02942547 0.05896584 -0.087788776 -0.027978064
-0.04980037 -0.047152407 -0.01411397 0.0488385 0.047926687 0.01996507 -0.018864075 -0.0074130273
0.025182813 0.027967187 0.019427082 -0.010585376 0.037346426 0.032620423 -0.06681599 0.04154419
0.0015393791 -0.03352245 0.010730187 0.06968617 0.012372023 -0.015485746 -0.04724863 -0.009362714

fc1.bias f4 [50]
00000000: 9615 593d b528 c2bc 82b1 2f3d 32d7 363d
00000010: 7079 b63c f462 523d dd94 fdbc cce8 743d
00000020: f1a6 9d3d ca41 403a 2853 f63c b4a4 e6ba
00000030: 36b3 7d3c b894 c23d 1a61 4a3c e930 203d
00000040: 025a e93c cba2 313c eec7 6c3d d429 033d
00000050: da23 7c3d 17e0 573b c7a2 9ebc b8e1 783d
00000060: 8070 10bd 63d5 163d b7b4 213d f51d 333d
00000070: 81a4 7e3b cc39 00bd 23ea 2abd 5f94 c13c
00000080: 3350 403c b49b b13c 58fa 763d 21bd 233d
00000090: 7909 2c3d 7fdc b1bc d6cf 8c3d 368c ac3c
000000a0: 679d 8f3d 42a5 463d 1226 1c3d 4ed2 3abd
000000b0: 82d9 4d3d 2050 0c3c 9384 e0bc a1e9 e73c
000000c0: a546 a73c e6b4 2c3d
0.0529991 -0.023701051 0.042893894 0.04463882 0.022274703 0.0513639 -0.030954773 0.059792325
0.07697857 0.0007334022 0.030068949 -0.0017596693 0.015484622 0.09501022 0.012352252 0.039109144
0.028485302 0.0108420355 0.057807855 0.032022312 0.06155763 0.0032939964 -0.019364728 0.060762137
-0.03526354 0.036824595 0.039478984 0.04372974 0.0038855376 -0.03130512 -0.041727196 0.02363032
0.011737871 0.02168069 0.06029734 0.03997529 0.04200122 -0.021711586 0.06875579 0.021062952
0.07012444 0.048497446 0.038122244 -0.04561072 0.05025626 0.008564025 -0.027406966 0.028309645
0.020419428 0.042164706

fc2.weight f4 [10, 50]
00000000: 0dd6 e03d ef43 1c3e b81f 683e 67e6 0ebe
00000010: 7353 7dbe 9696 bfbd 91c1 52bd 8d07 b1bd
00000020: 3017 ecbd d5e3 1f3e 61bd 2dbd 8777 283d
00000030: 1f34 1dbd 6b88 99bd 02f5 12be 60fd 653e
00000040: 99b2 533e 70de 0ebe 9f91 0dbe bd19 7e3d
00000050: c8f5 943e bd8c 8bbd 79c9 12bd 58b5 253e
00000060: 8d1c 3d3e a8cc 453d 19e2 1fbe b0ae d33b
00000070: b834 51bd 5869 aebd 7b5f 313e f41e 0fbe
00000080: 1bd6 01be 4a64 903b 2fdb f6bc 9008 d4bd
00000090: e308 38be 0cb6 10be 4304 76be 8154 833e
000000a0: 376a 0fbe 4fef c53d 122f 4b3e e05e b2bd
000000b0: e673 c63d 8a08 7cbc e0fe 00ba b6c3 38be
000000c0: b7ad b6bc 9c69 7abe a591 67be ad9f 28be
000000d0: e440 d83b d809 523e 4b7b 8c3d 25bb 84be
000000e0: a8ef f73d 976c 12be c70c 63bc 3b25 18be
000000f0: fce8 63be cbc6 d5bd 4690 e7bd 1f58 473e
00000100: fb4a 503e cf63 9abd 22aa 49be cbbd 0a3e
00000110: 61f6 79bd 1568 b03d d7a1 833d 7fe0 993d
00000120: 39a2 febd 0d5f d43c 19a2 fe3d 628e e0bc
00000130: 5ec6 6f3e 0a40 9cbd 9adf 64be 9e4b a43d
00000140: 3dce cfbd 03b4 61be 7ad7 20be 237f c8bd
00000150: 3169 763e 14ab d63a 481d d7bd 13cb 313e
00000160: 851e 133e 3a64 e63c 7342 4e3e 54bb 18be
00000170: d92d 7abe 4300 dabd 9596 0fbe 0ebc db3d
00000180: b1c5 0a3e 7824 5dbe 9ba3 f9bd 6662 223e
00000190: 3d66 c1bd fbc9 bfbd d5c8 453e d2dc 7bbc
000001a0: a66c c03d efee 29be 6ea5 b03d e761 333e
000001b0: c648 3bbd 1f87 19be eebc ac3d 0ead e3bd
000001c0: 17c6 62bd cf7a ff3d b6db a9bd b1e3 abbd
000001d0: 5779 2b3e 53a8 113e 2d06 25be fcac ebbc
000001e0: ece4 31be 0d13 bb3d ac4b 2ebd 86e8 3d3e
000001f0: 7f1c 22bd baea ebbd cefb 6fbe ab49 4c3e
00000200: 763c bcbd 6810 053e 4c15 00be cfb4 a6bd
00000210: b37b 083d f6b3 e43d 7cc9 633e 8880 3dbe
00000220: 73f5 b1bd 118b b93d e9e2 36be 134e 2c3e
00000230: 6489 efbd 4792 b93d e843 2c3e 27fe 203e
00000240: 2540 b33d a566 a5ba 0736 cc3d d10b 88be
00000250: 527b 0c3e d8f8 c23d 9fff 113e 07c7 10be
00000260: 63f3 98bb f536 2f3e 79bb 323e 3d3e 233d
00000270: ffef 703d 32d5 f53c 027b 2cbc 6c6e 13be
00000280: d298 8ebd f413 9bbc 88ef 423e 08c9 34be
00000290: 61bb 18be 8f16 823d bf6d 16bd a1d6 683d
000002a0: 3127 f5bd 3a5a 703d cf76 03be c2d8 0ebe
000002b0: 92b3 f8bd 90cc 1c3e 97d6 04be 10b4 16be
000002c0: 024c 29be e7b8 8d3d 2d74 40be 9a47 dc3d
000002d0: 196e 26be 7977 02be 7bbd 363e 1d56 0f3e
000002e0: c54f bebc afd6 383e 568b 40bd 472b 42be
000002f0: 5089 133e 8178 9bba 42aa 50be fd61 b63d
00000300: 95e5 ff3b 2e30 febc b3b4 bf3d a164 88bc
00000310: ced9 313e 4db3 e33d 395d 0cbe ad2d 0f3e
00000320: 175b 68be bff3 76be b51f 9cbd 42bc 0e3e
00000330: 4563 74bc a383 113e 53b5 36be 9227 22be
00000340: f137 183e c007 6d3d 92ae 0e3e 3a6a ee3d
00000350: b9df 233e 3a7c b3bb f501 44be d80d 86bd
00000360: adf9 09bd a7ef 2bbe a01a 443e 10ca e7bd
00000370: 0a6d e1bd 6779 00be 4073 733e 883d 1cbe
00000380: 09eb 383e 8709 2dbe cf45 6a3e 9a61 eebd
00000390: f22a 733e 33c6 3e3e 41fa 12be 27af 3c3e
000003a0: 3e27 31be da60 15be 1736 2abe a622 f2bd
000003b0: bc5a e73d 4669 133e b44c ee3c 6245 753d
000003c0: 658b 1fbd a016 aebe ba05 4abd bbbf 303e
000003d0: 28da 79be ac57 a2bd 40d8 08be 0900 00bd
000003e0: a4e5 503e cb5c febd 99d3 233e 3ba1 073e
000003f0: b0d8 04bd 06b9 e7bd 9c9f f53d 7181 203e
0.10978327 0.1526029 0.2266835 -0.13955079 -0.24738865 -0.09354894 -0.05145413 -0.08644018
-0.1152786 0.15614255 -0.042416934 0.041129615 -0.038379785 -0.07496723 -0.14351276 0.22459936
0.20673598 -0.1395204 -0.13825081 0.062036265 0.29093766 -0.06813953 -0.03583667 0.16182458
0.18467923 0.04829088 -0.15613593 0.0064600334 -0.051075667 -0.085161865 0.17321579 -0.13976651
-0.12679331 0.0044064866 -0.030133812 -0.10353196 -0.1797214 -0.14131945 -0.24025063 0.2565041
-0.14005361 0.09664785 0.19842175 -0.08709502 0.096900746 -0.015382895 -0.0004920792 -0.18043408
-0.02229963 -0.2445435 -0.22614153 -0.16467161 0.0065995324 0.20511568 0.06859454 -0.2592403
0.12106258 -0.14299236 -0.013858027 -0.14857952 -0.22256845 -0.104383074 -0.11306815 0.1946721
0.20341103 -0.07538568 -0.19693807 0.13548963 -0.06102598 0.08613602 0.06427353 0.07513522
-0.12433285 0.02592423 0.124332614 -0.027411643 0.23415515 -0.07629402 -0.22350922 0.08022235
-0.10146759 -0.22041325 -0.15707198 -0.097898744 0.24063565 0.001637789 -0.10503632 0.17362623
0.14367111 0.028123964 0.20142536 -0.1491521 -0.24431552 -0.10644581 -0.14022286 0.10729228
0.13551976 -0.21595943 -0.121894084 0.15857849 -0.094433285 -0.093646966 0.19314893 -0.015372472
0.09395723 -0.16595052 0.08625303 0.17517816 -0.0457237 -0.14992951 0.08434473 -0.11116992
-0.055364694 0.12474596 -0.0829386 -0.08393038 0.16745506 0.14224367 -0.16115637 -0.028769009
-0.17372483 0.09134493 -0.042552635 0.18545732 -0.039577957 -0.1151938 -0.234359 0.19949977
-0.091912195 0.1299454 -0.12508124 -0.08139955 0.033321094 0.11167137 0.22244829 -0.18506062
-0.08689394 0.09059728 -0.17859997 0.16826658 -0.11696127 0.09061103 0.16822779 0.15721951
0.08752469 -0.0012619091 0.099712424 -0.26571515 0.13718918 0.095201194 0.14257668 -0.14138423
-0.004667686 0.17110808 0.17454328 0.039854277 0.058822628 0.030008886 -0.010527374 -0.14397591
-0.06962742 -0.018930413 0.19036686 -0.17654812 -0.1491523 0.06351959 -0.036725756 0.05684531
-0.11970366 0.058679797 -0.1283829 -0.13949874 -0.12143625 0.1531241 -0.12972485 -0.14717126
-0.16532901 0.06920033 -0.18794318 0.107558444 -0.16252936 -0.12740888 0.17845719 0.13997693
-0.023231396 0.18050645 -0.04700788 -0.18961821 0.1440785 -0.0011861474 -0.20377448 0.089054085
0.0078093507 -0.031028833 0.093606375 -0.016649546 0.17368242 0.11118183 -0.13707437 0.13982268
-0.22690998 -0.2411642 -0.07623235 0.13939002 -0.014916246 0.14210372 -0.17842607 -0.15835407
0.1486509 0.05786872 0.13933781 0.11641355 0.16003312 -0.0054774554 -0.19141372 -0.06545609
-0.033685375 -0.16790639 0.19150782 -0.11317837 -0.11007126 -0.12546311 0.23774433 -0.15257847
0.18058409 -0.16898166 0.22878192 -0.1163971 0.23746851 0.18630295 -0.14353277 0.1842619
-0.17300126 -0.14587727 -0.16622196 -0.11823015 0.11296603 0.14395627 0.02908931 0.05988062
-0.038951296 -0.34001637 -0.049321868 0.1726064 -0.24399626 -0.07926878 -0.13363743 -0.031250034
0.20400101 -0.124200426 0.15998687 0.13245098 -0.03243321 -0.11314587 0.11993334 0.15674378

fc2.bias f4 [10]
00000000: 54b3 20be de00 183d 38f0 0abe a136 c8bd
00000010: e310 c13d eb08 eabd e6d6 9d3c a85a 9ebd
00000020: 5680 563d 8d5d 173d
-0.15693408 0.037110202 -0.13568199 -0.09776045 0.09427049 -0.11427482 0.01926751 -0.07732135
0.052368484 0.03695445
